PyTorch/Model/diabetes.pt (torch_old, 6740 bytes, 6 tensors)

weight f4 [20, 8]
000000 05 e5 0b 3f 1c 85 25 bf 21 0f 6d 3e b5 10 fc 3c
       0.5464633 -0.64656234 0.23150302 0.030769685
000010 62 3c 27 bf 02 eb cd 3e 4d 6d 19 3f fa 7c e4 3c
       -0.6532651 0.4021836 0.59932405 0.027891625
000020 d4 bc 3e be 4a 1e 88 3e 0d 31 a9 be 9d 31 23 be
       -0.1862672 0.2658561 -0.33045235 -0.15936895
000030 94 fd 76 3e 4d 10 4e be 24 73 49 3e 4f 1c cb 3d
       0.2412017 -0.20123406 0.19672829 0.09917509
000040 f9 24 2f be d2 fd c2 bd 16 92 9c 3d fa 0a d5 be
       -0.17103948 -0.09521069 0.07645051 -0.41609937
000050 2c 02 93 3d 84 97 3b be c8 a5 a7 3e 62 8e 83 be
       0.071781486 -0.18319517 0.3274367 -0.25694567
000060 50 f2 c7 be a4 a7 df bb 19 e1 02 3e 1a 62 3c 3e
       -0.39052057 -0.0068254042 0.1278118 0.18396798
000070 bd 1e f9 3c 97 d4 3b 3e 9d 3b cd bf 8f a9 cb be
       0.030410165 0.18342815 -1.6033818 -0.397778
000080 a3 41 87 3e ec d1 d7 bd 84 49 f9 bd 96 cb fc bd
       0.26417264 -0.10538086 -0.12172225 -0.123435184
000090 cc 5b 3c be 00 11 7c bc 58 41 43 be 24 29 d2 3d
       -0.18394393 -0.0153849125 -0.19067895 0.10261753
0000a0 00 bd e9 be ad 85 51 3e 97 5a ac bd bb 44 ef 3c
       -0.45652008 0.2046115 -0.08415716 0.029207578
0000b0 26 86 f0 3d 90 6e 95 be 94 6d ae bf 73 f8 15 bf
       0.11744337 -0.29185915 -1.362719 -0.5858223
0000c0 2e 9f 31 3e 7f 01 b7 be 82 60 a6 be fb cd da bc
       0.17345878 -0.3574333 -0.32495505 -0.026709547
0000d0 4c 4c ef 3d b0 8b 8a 3e f5 37 7c bf f1 42 03 3f
       0.11684474 0.27059698 -0.98522884 0.5127402
0000e0 7b e5 ea bb 48 92 9e 3e 37 45 09 be 8f 54 80 3e
       -0.0071684695 0.3097098 -0.1340531 0.25064513
0000f0 9e 6a 78 3e 7f bb 33 be 1c 8e 35 3d 4f 74 59 3e
       0.24259421 -0.17551993 0.04432498 0.21235774
000100 2b 7b c3 be d1 0f ce 3d 9a 9b c0 be 83 58 4d 3e
       -0.38179907 0.100616105 -0.37618715 0.20053296
000110 49 82 51 3d 9b 5f c4 be 4a 9f cb 3e 08 17 ef 3e
       0.05114964 -0.3835419 0.39769965 0.4669726
000120 64 e5 0c bd 8f 75 23 3e a4 60 7e 3d 06 39 c5 be
       -0.03439845 0.15962814 0.062103882 -0.38520068
000130 bd 03 ed bb 21 92 9e be 0f 80 af bf 45 b6 84 3e
       -0.0072331117 -0.30970863 -1.3710955 0.2592031
000140 5f 00 a9 be 5e 03 d0 be 98 eb 91 3e 09 84 a1 3e
       -0.33008096 -0.4062757 0.28500056 0.31546047
000150 b4 45 01 3e 21 47 2f be 9d 5e b2 3f e1 11 6b bf
       0.12624246 -0.17116977 1.3935124 -0.91824156
000160 02 3f d1 bd ea 9c 8b 3e a9 18 cb be 77 f9 07 bf
       -0.10217096 0.27268153 -0.39667252 -0.5311503
000170 e3 29 0c be 5a 9d 63 3e ba 57 e7 be 0a 0a 6e be
       -0.13687854 0.22227994 -0.45184118 -0.23246017
000180 29 c6 2c 3f c2 5d 3d 3e a4 09 a2 be c5 97 e9 3e
       0.6748987 0.18492797 -0.3164798 0.45623603
000190 3e 07 2b 3e 4d f4 f9 bd 2a 12 15 bf f3 1f aa be
       0.16701981 -0.122048 -0.5823084 -0.332275
0001a0 20 13 a7 39 64 e9 77 be 7a 1c b3 3e fe 4b 8c 3e
       0.0003186697 -0.24210125 0.34982663 0.27401727
0001b0 b2 6b 98 bd 1e 24 96 be e3 45 33 bf e6 4d 60 3e
       -0.07442416 -0.2932443 -0.70028514 0.21904716
0001c0 8c 9a 34 bf 91 4a d5 bb 06 b7 a3 3d 23 4b 8a 3e
       -0.7054832 -0.006509133 0.07993893 0.2701045
0001d0 0b 58 91 3e 79 62 98 be 8e 22 6b 3f 67 3d 9f be
       0.28387484 -0.2976263 0.918496 -0.31101534
0001e0 3a 5d 8f be 22 48 a5 3e 80 63 0f 3d 21 41 f5 3d
       -0.28000814 0.32281595 0.035007 0.11975313
0001f0 47 46 4d be 67 83 f5 3d c3 aa 35 3f 81 57 81 3e
       -0.2004634 0.11987954 0.70963687 0.25262073
000200 a0 f4 7b be fa 54 6c 3e 1c e9 27 3c a5 d4 4a 3d
       -0.24605036 0.23079291 0.010248449 0.0495192
000210 27 3b fa bd 65 cc 70 be 02 23 52 bf 89 73 84 3e
       -0.12218314 -0.2351547 -0.8208467 0.25869396
000220 00 13 da 3d 33 7c 7c be 50 e3 04 3d 98 ee 39 bd
       0.10648155 -0.24656753 0.032443345 -0.045393556
000230 98 8e 9c 3d 4d 18 0e be f6 7e 60 3e 45 cc 98 be
       0.07644385 -0.13876458 0.21923432 -0.29843345
000240 94 30 93 3c d9 12 3b be 3e ba 86 3e e4 26 a4 be
       0.0179675 -0.18268909 0.26313967 -0.3206092
000250 9e 9f a7 3d c3 69 a7 3e ba ea b1 bf 1f fd 57 be
       0.081847414 0.32697877 -1.3899758 -0.21092652
000260 e0 d9 0f 3f 71 16 33 be 70 79 44 3e b2 52 00 be
       0.56191826 -0.1748903 0.1918695 -0.12531546
000270 60 fd bb 3d db 6a 85 3d 2b dc 8a 3f fd 66 df bd
       0.09179187 0.06514522 1.084844 -0.10908315

bias f4 [20]
000000 83 1a 13 be bb 98 9f bf c5 e0 aa be c4 12 f1 3f
       -0.14365582 -1.2468485 -0.3337461 1.8833852
000010 30 83 a4 3d 36 2f 83 3e 21 e8 12 bf 24 fc 9e 3e
       0.080328345 0.25621957 -0.5738545 0.31051743
000020 9c 0c 5c 3f b6 74 ee 3f 08 96 91 3d 50 1a c4 3e
       0.8595674 1.8629367 0.07108694 0.38301325
000030 c5 1a 3f be 98 d9 c6 3f 30 7f 08 bf 34 46 99 bf
       -0.18662556 1.5535154 -0.5331907 -1.1974549
000040 2f 28 a2 3f 18 22 62 bd 66 1a 0c 40 8e 3e 94 be
       1.2668513 -0.055208296 2.1891112 -0.28953975

weight f4 [20, 20]
000000 9a f9 90 be 77 3c bb bc a8 49 93 3d d5 12 80 3e
       -0.2831543 -0.02285598 0.07191783 0.25014368
000010 60 55 38 be aa ab 98 3d e3 a2 8b be 8b 5c ef 3d
       -0.18001318 0.07454617 -0.2727271 0.11687573
000020 1c de 07 be 27 8a 0a 3e 30 5b a9 3f d4 1c 5e 3e
       -0.13268322 0.13529263 1.3230953 0.21690685
000030 2b aa 63 3c 55 f8 ad 3d c6 ef bd 3d 26 9e 1d be
       0.013895552 0.08494631 0.09274249 -0.1539236
000040 40 a1 45 3e 1a 9e f4 bd f6 f4 a5 bd ea 85 50 3e
       0.19299793 -0.11944218 -0.08103363 0.20363584
000050 17 f3 00 3e d5 1a 0f bd b1 f1 24 3e da 49 2c 3e
       0.12592731 -0.0349377 0.16107823 0.16825047
000060 e8 af c2 3d 78 4a 85 3e b0 c8 10 3c c2 a7 fa 3c
       0.09506208 0.26033378 0.00883691 0.030597571
000070 1a d5 64 be 92 8b ad 3d a1 df 33 3f 2e c6 c8 3e
       -0.22346917 0.084738865 0.70263106 0.392137
000080 6c 1c 3c 3d 90 61 95 bd 7e 8a 4d be f0 c7 6e bd
       0.045925543 -0.07293999 -0.20072362 -0.058296144
000090 01 07 cd 3d 64 a7 1f be 9d 21 67 3e 46 f2 a9 bd
       0.100111015 -0.15591198 0.22571416 -0.08298163
0000a0 ea ad b2 3c 73 9c 72 3d df a1 35 bd b0 a5 29 3d
       0.021811444 0.059231233 -0.044343825 0.041417778
0000b0 10 27 50 3e e0 63 45 3b aa 6a cc 3d 55 8b 86 be
       0.20327401 0.0030119345 0.09981282 -0.26278177
0000c0 95 ea d5 bd 1f 18 1d be 4d 0d 18 3e a2 cc 42 3e
       -0.104451336 -0.15341233 0.14848824 0.19023374
0000d0 2d 49 82 bd bc b9 28 3d eb 83 b1 3d 7b c0 12 be
       -0.063616134 0.041192755 0.086677395 -0.14331238
0000e0 73 ca 8b 3c b2 0f 25 3e 05 1b 4e be 6b 89 58 be
       0.017064309 0.16119269 -0.20127495 -0.21146171
0000f0 40 c2 9f be 55 58 db 3c 98 7c 23 3d 44 90 28 be
       -0.31202888 0.026775518 0.039913744 -0.16461283
000100 d2 fc 11 3e 6d 6a 8f be cb 75 e2 bd 76 4c 32 be
       0.142566 -0.28010884 -0.110576235 -0.1741198
000110 ec e6 83 3d 2b a8 af be 51 60 41 3e 34 fb a6 be
       0.06440529 -0.3430799 0.18884398 -0.32613528
000120 59 04 89 bd f7 2b 1f be ca c2 a5 bd db 60 c0 3d
       -0.066902824 -0.15544115 -0.08093794 0.09393474
000130 d2 88 b6 bc 50 e3 42 3d 59 25 7d 3d 45 b7 86 3d
       -0.022282038 0.047580063 0.061803196 0.06577925
000140 de 9a e7 3e 94 ae 91 bd 8b 64 c9 bd 5c df d9 bd
       0.45235342 -0.07113376 -0.0983363 -0.106383055
000150 20 08 3b be 2f 71 20 bf 16 1d f9 3e a5 a8 24 3e
       -0.18264818 -0.62672704 0.48655003 0.16079958
000160 f8 66 90 bf f8 a7 2a be 31 a7 45 bf 78 47 2f 3d
       -1.1281424 -0.16665637 -0.7720824 0.042792767
000170 4d 8e 87 be e6 2c 22 bd 14 83 64 3e 35 b7 2d bd
       -0.26475754 -0.0395936 0.22315627 -0.042411048
000180 dd 3a 0b be 30 f3 39 bc d2 a5 2e bd bd 86 1e 3e
       -0.13596673 -0.011349484 -0.042638607 0.15481086
000190 14 97 df 3e 36 ae 0e 3d 27 51 75 bd 60 72 5f be
       0.4366995 0.03483411 -0.059891846 -0.21820974
0001a0 c0 e0 bd bb bd 57 c1 3d 59 c7 f7 3d 4f 1b 3b 3e
       -0.0057946146 0.09440563 0.120985694 0.18272136
0001b0 81 5c 9e 3d 68 6b 35 3d 31 48 81 bf 7e af 17 be
       0.077324875 0.044291884 -1.0100156 -0.14813039
0001c0 3a be 31 be e7 ea e2 3d 95 e9 d5 bd 8b 27 c1 3d
       -0.17357722 0.1107996 -0.10444943 0.0943137
0001d0 bc e4 52 3d 85 7a 26 be 88 ca 1e bd ce 7c bb 3b
       0.05148767 -0.16257675 -0.038767368 0.005721665
0001e0 1c 7d 20 be 78 1f 00 bd ac 30 97 3c fe 46 d5 bd
       -0.15672725 -0.03128001 0.018455826 -0.10413931
0001f0 b4 a5 d8 3d 78 f3 19 bd 94 45 6f be bc 85 45 3e
       0.1057848 -0.037585706 -0.23366386 0.19289297
000200 c8 a0 0c 3d f6 67 d6 bd 35 53 91 3f ff 96 f4 3d
       0.03433302 -0.10469048 1.1353518 0.11942863
000210 46 3e bd bd 88 ca f7 bd 20 35 b0 bc dd 4f 0c be
       -0.09240393 -0.12099177 -0.021509707 -0.1370234
000220 89 b5 15 3e ce de 1e 3e 42 98 76 3e db 29 13 3e
       0.14620031 0.1551468 0.24081519 0.14371435
000230 ce 95 58 3e f6 64 3d 3d e8 b8 f5 bc 73 97 b8 3e
       0.21150896 0.046238862 -0.029995397 0.36053047
000240 be f5 fb bd 66 e6 53 be 3f 70 d1 bf 94 11 8f be
       -0.12302731 -0.20693359 -1.636238 -0.279431
000250 c2 d1 e2 3d b2 6f d7 bc bd 3e bd 3e dd 43 8c bd
       0.110751644 -0.026298378 0.36961928 -0.068488814
000260 0a 3d 81 be f3 33 63 be 80 9a 88 be 28 e2 19 3e
       -0.25241882 -0.22187786 -0.26680374 0.15027678
000270 36 95 22 be d0 23 d3 bd 18 43 e5 bd 90 46 0f 3e
       -0.15877232 -0.10309565 -0.11194438 0.13991761
000280 fd 08 07 3e d4 e2 62 be 74 60 30 bc fa 7b 4c bd
       0.13187023 -0.2215684 -0.010765184 -0.04992292
000290 28 06 3c be 9c bc df 3d 53 d2 a3 be 41 1d 59 be
       -0.18361723 0.10924646 -0.31996402 -0.21202566
0002a0 04 ff 8e 3d bf 34 8d bc 25 bd bf 3d 51 a1 a1 be
       0.06982234 -0.017237065 0.09362248 -0.31568387
0002b0 3a d2 54 bd 72 64 3e bd f1 67 48 3d 90 67 d2 3d
       -0.0519583 -0.04648251 0.04892725 0.10273659
0002c0 b9 3f 21 be b4 1c 52 bd 2b de 93 bd 58 1a 4a be
       -0.15746965 -0.051296905 -0.072201096 -0.19736612
0002d0 8a 8c db bd 00 0e 8a bc 2f 16 d1 bd d9 19 5d bc
       -0.10720165 -0.016852379 -0.10209309 -0.013494932
0002e0 8f 6c 36 be 88 82 9b bd 34 e6 e5 bd 8b 39 86 be
       -0.1781485 -0.07593256 -0.112255484 -0.26215777
0002f0 3c 65 f4 3d d4 e9 4f bd 2e 88 10 3e a8 07 e3 3d
       0.119333714 -0.050760105 0.14114448 0.11085445
000300 08 10 10 3d f4 df 12 3e b7 c3 26 be 9a 6e 7d bd
       0.03517154 0.14343244 -0.16285597 -0.061873056
000310 33 12 70 be 46 eb 4a 3e 3f d4 46 bd da f6 5a be
       -0.23444442 0.19816312 -0.048542257 -0.21383229
000320 cd 27 dc be f1 75 cc be dc 48 24 bc af 26 03 bd
       -0.42999116 -0.39933732 -0.010027137 -0.032019313
000330 98 91 31 be 1f fa 88 be 0c 9b 1d bf 28 a8 92 be
       -0.17340696 -0.26753327 -0.6156471 -0.28643918
000340 31 77 4c 3d 60 80 cf 3d 4f 95 c0 3c fb b4 0d 3f
       0.049918357 0.101319075 0.023508696 0.5535428
000350 3e 9a 9d be 5d ed cd 3e 6e a3 85 3d c3 cf 26 3d
       -0.3078174 0.40220156 0.06525312 0.04072548
000360 23 75 ec bd bd ec 44 be e1 c0 04 3f 17 37 50 3e
       -0.115457796 -0.19230933 0.5185681 0.20333515
000370 0a 8c 5d bd 6d ad 7a 3c ba 99 07 3e 65 8b 37 bc
       -0.05408863 0.015300137 0.13242236 -0.011202668
000380 24 17 34 3e 9b b9 17 3e 81 4a e7 3c b6 7c 47 3e
       0.17586952 0.14816897 0.028233768 0.19481167
000390 d1 cf 06 3d 1c 01 de bd 57 5c 76 3f 08 8a 06 bd
       0.032913033 -0.10840055 0.9623465 -0.03284648
0003a0 53 f1 45 3e 37 42 39 3f 60 2a 61 3d 02 00 5d be
       0.19330339 0.7236666 0.054972053 -0.21582034
0003b0 ba a0 bc bd 14 f3 22 be c4 43 db bd a8 dc 47 be
       -0.09210344 -0.1591304 -0.10706285 -0.19517767
0003c0 bd c7 1a bd fa 6d 0a 3c c5 15 17 3d f9 86 a0 be
       -0.03778814 0.008449072 0.036885995 -0.31352976
0003d0 ea 27 30 be b2 d0 96 3c c7 ec 3b 3e 28 0d 1c 3e
       -0.17202726 0.01841006 0.18352042 0.15239394
0003e0 c2 7e ac bd 0f 73 97 bb 66 9c 52 bf ac a0 16 be
       -0.08422615 -0.0046218704 -0.82269895 -0.14709729
0003f0 69 c3 d9 3d c5 af 14 3e d8 50 90 3d 18 30 c8 3d
       0.10632975 0.14520176 0.0704667 0.09774798

bias f4 [20]
000000 68 57 75 3f 28 39 a3 3f c1 88 af bd 34 3b 36 be
       0.95836496 1.2751818 -0.085710056 -0.17796022
000010 a8 ac 9e bf 52 ca 47 bf 4c fa 70 3f 0c 12 5c be
       -1.239644 -0.7804309 0.9413192 -0.2149126
000020 58 39 9b bd 17 eb 26 be e1 4a 23 3f 78 c7 44 3f
       -0.07579297 -0.16300617 0.6378613 0.76866865
000030 c2 fc 62 bf 37 f9 2d be 17 6c da be 43 4a c1 bf
       -0.8866693 -0.16989599 -0.4266059 -1.5100788
000040 ea 50 ba bf aa 3f 16 be 7e 70 f3 3d 4c 2a ac 3f
       -1.4555943 -0.14672723 0.118866906 1.3450408

weight f4 [2, 20]
000000 48 31 d6 3d dd 6b a4 3e ba 99 14 be 43 99 15 3e
       0.104586184 0.32113543 -0.14511767 0.14609246
000010 75 fa 51 bf 4e 6a 86 3c aa 17 20 bd bb 1e f1 3d
       -0.8202279 0.016408112 -0.039085068 0.117734395
000020 84 9f 88 3e 8f a0 d0 bd db cc 28 3f 56 ed b1 3d
       0.266842 -0.10186874 0.65937585 0.08687846
000030 c5 d4 62 be f0 a5 95 3c 6c ed 44 3c 71 c5 1c be
       -0.22151478 0.018267602 0.012019496 -0.15309693
000040 d9 87 16 be cc e6 7b bd 47 a9 64 3d 20 a1 a7 3e
       -0.1470026 -0.061499402 0.055825498 0.32740116
000050 bd e8 c3 bd 31 fa 4e 3d 21 e3 c4 bd 0f 38 63 3d
       -0.09565876 0.05053157 -0.09613634 0.055473384
000060 27 8e 01 3f 8d 83 4f 3e 5f 30 02 be 88 29 aa 3d
       0.5060753 0.20265026 -0.12713765 0.08308703
000070 db e9 1a 3e 81 91 25 be 7f 1d 36 bf 9f c2 0f be
       0.15128271 -0.16168787 -0.7113876 -0.14039086
000080 e2 11 a0 3d 79 ec 0b 3d 41 6c a9 3d 55 64 98 3e
       0.07815911 0.034161065 0.08272601 0.29764047
000090 8b d3 8e 3e c0 fc be 3d fb 84 66 3d 7f ba 7c be
       0.2789577 0.09325552 0.056279164 -0.24680518

bias f4 [2]
000000 2d d1 69 3f ce 14 a1 bf
       0.913348 -1.2584474
